sort_GPT.pt (torch, 154053 bytes, 125 tensors)

transformer.wte.weight f4 [7, 16]
00000000: 3d31 043c cf8a 95bc fc82 50bc 7714 d8bc
00000010: 8631 21bc b7de 8abc 75bd 693b 6197 d63c
00000020: c00f 433b 9096 233c e439 f1bc dfc8 14bd
00000030: 02aa 0f3d de40 60bb 5c36 0dbc 634b 2f3c
00000040: 160d 6fbc c30c 173b f5c0 c93b 1569 8abd
00000050: 143f 823c 8241 5f3d 5389 503c d4dd 823c
00000060: 399d e0bc b33a 59bb cbfe 85bc 2639 9bbd
00000070: fda4 39ba 283e 003a 1906 ea3c 8933 d23c
00000080: 780c 1439 6aaf 02bd aaad 6c3b 1a87 543c
00000090: 77df d5ba b239 bb3b c119 503d dc77 223c
000000a0: ace1 71bd a6e5 15bd cdb5 823b 7600 1c3d
000000b0: 8827 75bb 1c6e eebb d6b5 283d ff6a 8a3b
000000c0: 3251 37bc bc78 24bc 2c8a d33d cc97 5c3d
000000d0: 0934 f93c 8202 89bc 8fa2 babc 44cd 0cbd
000000e0: 3075 14bc ebc2 fbbc f47f c13a 41d0 383d
000000f0: 8100 96bc c6e3 8cbb d3df bf3c 7d0e d839
00000100: 99be c33c 4ea2 8c3c 45c5 b6bb d248 cf3c
00000110: 73ed ac3d e131 833b ac64 17bd 0f1b 84bd
00000120: 522c 063d 71c4 d53c 0413 433c e974 8dbc
00000130: c860 1ebd c2fd b93d 0efd 12bd 1e8a abbb
00000140: 08ab ff3d 9ab2 b73d 9973 f7bd 123f 88bc
00000150: aed8 4abc 8b97 15bd 38a3 5d3d 38da d5bc
00000160: ef59 943d c935 09bd f4c3 703d bfb2 f53b
00000170: 65ad 63bd 5616 a03d d0b1 6fbd bf94 3ebd
00000180: afd8 36bc 3392 7cbc 2997 bfbc a2ce fcbb
00000190: 2f49 113d cf42 4ebc 406b 523d d457 943c
000001a0: 1d12 b73c fc11 b03c e2b4 85bc 8529 9dbb
000001b0: 6468 8e3c 69e9 bfbc 45be 57bc d9b3 c73b
0.00806838 -0.018254666 -0.012726542 -0.026376946 -0.009838467 -0.016951902 0.0035665904 0.02619523
0.0029764026 0.009984627 -0.02944655 -0.036324378 0.03507424 -0.0034218351 -0.008618917 0.010699126
-0.014590522 0.0023048378 0.0061570355 -0.06758324 0.015899219 0.054505832 0.012728053 0.015974917
-0.02741872 -0.003314656 -0.016356846 -0.075792596 -0.0007081775 0.00048920745 0.02856736 0.02565934
0.00014119025 -0.03190557 0.0036114254 0.012971664 -0.0016317208 0.005713665 0.05080581 0.009916272
-0.059053108 -0.036595963 0.0039889575 0.038086377 -0.0037407596 -0.0072763097 0.041189037 0.0042241807
-0.011188792 -0.010038551 0.103290886 0.053855702 0.03042032 -0.016724829 -0.022782592 -0.034375444
-0.009061143 -0.030732593 0.0014762864 0.04512048 -0.018310787 -0.0042996136 0.023422157 0.00041209525
0.023894595 0.017167237 -0.0055777156 0.025303278 0.08443727 0.0040037488 -0.036961243 -0.064504735
0.03275711 0.026094647 0.011906389 -0.017267661 -0.038666517 0.090816036 -0.035885863 -0.0052349707
0.124837935 0.089696124 -0.120825954 -0.016631637 -0.012380762 -0.036521476 0.054110736 -0.026105031
0.07243716 -0.03349856 0.058780625 0.007498115 -0.055585284 0.0781676 -0.058519185 -0.046528574
-0.01116006 -0.015415716 -0.023387508 -0.0077150622 0.035470184 -0.012589171 0.051371813 0.018108286
0.022347504 0.02149295 -0.016321603 -0.0047962093 0.017383762 -0.023426728 -0.013167922 0.0060944376

transformer.wpe.weight f4 [11, 16]
00000000: 0939 e8bb f809 cf3c 3a20 27bb a9b6 33bc
00000010: 2cfa 453c bc2c c5bc 5da4 2fbd 5f90 563b
00000020: 7b0c e4bc df51 dc3c 1697 fbba 62cb 9d3c
00000030: aaf6 8f3b 4e0f 81bc 8be8 c13c fd0a febc
00000040: 6d24 25bb 3f27 34bd f8e1 34bc 0a3c 9d3a
00000050: 30b1 9abb f1db 14bc c8be 04bd 7c4c a93c
00000060: b869 fd3b 6d9e fb3c b73f 98bc 83eb b23a
00000070: 1825 633c d41d 9c3a c503 11b8 f9c4 fabc
00000080: e3a4 98bc 105b 3e3c 13c0 ceb9 fddc 4abc
00000090: 8b13 79bb df05 20bb e331 a2bc 6f87 743c
000000a0: 9ca3 643c dc8d 623b adfb ecbb 5861 983c
000000b0: b688 383c 2611 5bbc ac5d e539 ba09 e8bb
000000c0: ffcd 80bc 979b 143b 6c1c b3ba a030 a23b
000000d0: 8da9 55bc e242 b7bb 47dd 8cbc 5eb6 103b
000000e0: f524 0f3b 8ce0 493c fe9b beb9 7b06 be3c
000000f0: 8e29 003c de47 b0bc a2a5 6ebb d93f cd3a
00000100: 211d 95bc 9645 f4bb 63e5 acbb 3179 5bbb
00000110: c938 5bbb 390a d8bb 434e a0bc 5ab4 123c
00000120: 3750 56ba 4f11 b43c 240f e2b9 ac8a e43b
00000130: 3c46 ce3b 4221 16bc fad9 c2ba 13d6 69bc
00000140: f428 73bd d53b 6e3c 66ba 48bc 5613 e03a
00000150: 51fe 2cbd b3ea 6dbc 4e2d 25bd d66f 223d
00000160: ce0f a13c a5e4 023d e84f 553d ea8a 203c
00000170: 9dbc a5ba e33a 9ebd 8d30 29bd 57b1 bf3b
00000180: 0eea 08bc 9c29 c53c 2b76 113c 59a8 703d
00000190: 0e46 3cbd c3d4 523d 14be 4f3c bea1 b6bc
000001a0: 1908 2c3b 2fb9 33bc 364f f13c 1d1c 823d
000001b0: 2795 89bd 1e39 39bb 47a8 9c36 20fe 713d
000001c0: 43df d23a e64b bb3c 2946 193d 7ed5 ab3d
000001d0: 4bc3 a4ba 88ea 843d fef7 323c c0b0 aebc
000001e0: ae06 273c d272 7dbc 2727 2e3c e91f ddbd
000001f0: e8e8 efbc 3290 963b 7353 d73a c288 aa3b
00000200: c4d9 993c 541a bc3a 9453 023d 2a48 0b3d
00000210: f56a 183b cc94 a93c 5f5e b03c d8fb f0bc
00000220: 62d2 8fbd 44e3 acbc 5b63 f4bb e301 6c3c
00000230: 3b0c a03a cba3 933c 9381 843c 7ae8 06bb
00000240: ad1f de3c 974d 91bd 1564 9a3c d153 3bbc
00000250: 5b93 e43c 8e55 523b b575 c63b e70b 65bd
00000260: 1537 25bd bc64 d4bc c35d 2dbd da22 22bc
00000270: 93fa 083d 8dc3 2a3d a9b7 783d 7817 89bc
00000280: bc7c 973d 6bd2 66bd 633a 0cbd 5320 92bd
00000290: c022 953d 6e17 5fbd 4c52 8cbc 195b cebc
000002a0: 57b6 5c3c c1a2 093c bfe6 0ebe d85e 573d
000002b0: 9acf 203e 8b53 cd3d 4136 053d 36fa 5dbd
-0.0070868772 0.025273308 -0.0025501386 -0.010968843 0.012083571 -0.024069183 -0.04288136 0.003273986
-0.027837982 0.026894508 -0.0019194807 0.01926202 0.0043934183 -0.015754368 0.023670455 -0.031011099
-0.0025198713 -0.04398274 -0.011040203 0.0011996042 -0.0047208294 -0.009085641 -0.032408506 0.020666353
0.00773355 0.030715192 -0.01858507 0.001365051 0.013863824 0.0011910745 -3.4574205e-05 -0.030611502
-0.018633312 0.011618391 -0.00039434488 -0.012381789 -0.0038006033 -0.0024417562 -0.019799178 0.014924868
0.013955023 0.0034569418 -0.0072321505 0.018601105 0.011263063 -0.013370788 0.00043748075 -0.0070812376
-0.015723227 0.0022675747 -0.0013665087 0.004949644 -0.013040912 -0.00559269 -0.017195357 0.0022081356
0.0021842096 0.012321603 -0.00036355847 0.02319645 0.007822407 -0.021518644 -0.0036414643 0.0015659287
-0.018202366 -0.0074545844 -0.0052763685 -0.0033488984 -0.0033450595 -0.0065930155 -0.019568568 0.008954132
-0.0008175405 0.02198091 -0.0004311736 0.006974539 0.0062949937 -0.009163203 -0.0014865987 -0.014272231
-0.059365228 0.014540632 -0.012251472 0.0017095606 -0.042234723 -0.014521289 -0.04032641 0.039657436
0.019660857 0.031956334 0.052078158 0.009798745 -0.0012644712 -0.077260755 -0.041306067 0.005849998
-0.008356584 0.024067692 0.008878271 0.0587543 -0.045965247 0.051472437 0.0126795955 -0.022293922
0.0026249944 -0.010969444 0.029456716 0.063530184 -0.06717902 -0.0028262804 4.6687524e-06 0.059080243
0.0016088266 0.02286334 0.037420426 0.0839033 -0.0012570409 0.06490046 0.010923384 -0.021324515
0.010194464 -0.01546927 0.010629452 -0.10797102 -0.029285863 0.004594826 0.0016428068 0.005204291
0.018780597 0.0014351108 0.031817988 0.034004368 0.002325711 0.020700835 0.021529375 -0.029416963
-0.07022549 -0.021104462 -0.007458133 0.014404747 0.0012210676 0.018022439 0.016175067 -0.0020585344
0.027114714 -0.07094877 0.018846551 -0.011433558 0.027902296 0.0032094452 0.0060565122 -0.055919554
-0.040335733 -0.02592694 -0.042325746 -0.009896005 0.03344209 0.041690398 0.060722027 -0.016734824
0.07396838 -0.056353014 -0.03423537 -0.071350716 0.07282019 -0.054465704 -0.017129086 -0.025189923
0.013471208 0.00840062 -0.1395521 0.052580684 0.15704194 0.100257 0.032522444 -0.054193698

transformer.h.0.ln_1.weight f4 [16]
00000000: 320c 8d3f 8d9b 8b3f 4d98 863f 6663 843f
00000010: 2afc 833f 101f 8a3f 5a72 7c3f 518a 8a3f
00000020: 5e6b 853f 2f20 893f 25b4 973f 7f4d 833f
00000030: b663 8c3f 9004 8a3f ed30 8e3f 3670 853f
1.1019347 1.0906845 1.0515229 1.0342834 1.0311329 1.079073 0.98611987 1.0823461
1.0423391 1.0712947 1.1851851 1.0258025 1.0967929 1.0782642 1.1108681 1.0424869

transformer.h.0.ln_1.bias f4 [16]
00000000: 67cf 16bb 9bec 3a3b e448 5cbc cfad a039
00000010: f8e8 d6bb 1afd 1e3c 5fde 833c d131 7d39
00000020: 100a 463a 0f60 a73b c68e c73b 75d5 a0bb
00000030: 035c aabb 8a44 593b b2ac 00bc 4aee d1ba
-0.0023011805 0.0028522376 -0.013445113 0.00030647076 -0.0065585338 0.009703899 0.016097246 0.00024146518
0.00075546 0.0051078866 0.006090018 -0.0049082586 -0.005198957 0.0033152425 -0.007853674 -0.001601645

transformer.h.0.attn.q_attn.weight f4 [16, 16]
00000000: 1ba6 f93d eb4e d1bd ef17 823d 5c5d 163d
00000010: 81eb a73d f750 c4bc 658a 2e3d 951c 13be
00000020: 1488 8bbd fca2 b3bd 832b 47be efd3 30bd
00000030: 6258 dc3d ee75 333e 4fc9 8b3d 8747 04bd
00000040: 4de7 eabd 3106 213e 12d7 3bbd 9605 75bc
00000050: f371 a9bd a897 4fbc 854e 94bc 47c3 073e
00000060: e4ba 363d 28fd ac3d eec6 3c3e fa13 c03a
00000070: efa3 f8bd 99c4 74be e766 e1bd 9477 643d
00000080: 8a5a 00be 94e8 dd3d 7f71 8dbd efd9 86bd
00000090: 389b 92bd 0270 cd3c 5f60 30bd 6a63 1c3e
000000a0: b8e3 ea3c 5dd8 f13c f410 623e 21f6 483c
000000b0: a07c a7bd 972e 32be 4ae9 47bd e9b6 c73c
000000c0: 0744 fbbd 32cd 133d 09bc 503b 381c 913c
000000d0: c8aa 84bd c99e 1e3d f5b8 08bd 575f 1e3e
000000e0: c685 793d 6947 093e e265 fb3d 7d16 de3c
000000f0: 2280 b4bd a15b 01be 67f3 e3bd 3649 623d
00000100: 080c 02bd ed47 f63d 588d debd 3f95 02bc
00000110: 136f 0d3c 9671 bdbd 23b6 89bd 6a22 bc3c
00000120: 821c 773d f951 c6ba 970a 583e 411b 923d
00000130: 946f d33c 3c3f e9bd 8b89 943b cfc4 aabd
00000140: e1e9 c53d 8675 95bd 5a71 693d ed0f 383d
00000150: e3c1 eb3d ab2e 87bc 7979 b03c 7391 f8bd
00000160: 1575 8abd 79d9 d0bd 497c f0bd 72d4 903c
00000170: a5a6 db3d c087 1a3e 2f71 043e a9a2 89bd
00000180: 22b1 9cbc b51c f53d d076 92bd ac86 76bd
00000190: 6a4f e2bc 6f1f 10bd 35d6 54bc e734 923d
000001a0: b3af d53c cac2 623d cc1f de3d 7a6e 0b3d
000001b0: cade c0bd 5758 bebd b110 f3bd d5b3 d93c
000001c0: be11 9b3d 4141 0e3b 6354 303d 2fa2 b5bc
000001d0: d8fd 813d b9f1 5fbd 2622 a13c ed5f c3bd
000001e0: 8b60 cebc 3d85 e8bd 08f5 14bd de19 303d
000001f0: 8f18 ef3d f231 f13d 80d1 e53d e19b aebd
00000200: 2bcd 4abd 30a1 c63d 345e 27bd d5c9 7ebd
00000210: 7134 683d 4384 2ebd 3675 31bd 4d64 293d
00000220: dca1 81bc bf14 8e3c 5b51 913d d949 4a3d
00000230: 1bb2 213d 157f a5bd 206d 643d 3f60 cfbd
00000240: bd07 813d 55b0 7a3d 5dd3 3dbd 59d3 00be
00000250: 0d8e 163b 5c11 45bc 8d72 98ba 797f fa3c
00000260: 3140 933c dfad b33d c8cd da3c c0d3 d93c
00000270: 68ed 203d 9c56 91bc 0edb 33bd 99c8 953b
00000280: cdfe 84bd 0ee3 593d 6f10 3abd e851 693c
00000290: 69d3 68bd 4d23 723c 72ce 94bb e5ac 843d
000002a0: 3a8c 783d 32d0 8e3d 818c a43d 972c debc
000002b0: b884 11be 6d23 80bd c7cc 0ebe ade0 993d
000002c0: e9cb b6bd 8816 6c3d af56 be3c cbff 123c
000002d0: 7268 b3bd 7466 3b3c ba84 78bc 9d1f 843d
000002e0: 9242 1d3d f159 be3d 95fb a73d b554 9bbd
000002f0: e41f 9fbd 064f b7bd 7142 debd 494a c73d
00000300: 4d12 7d3d 4946 e6bd 7d43 8c3d 8231 143d
00000310: 1e1e fe3c 07b2 c3bb db21 453d 2715 17be
00000320: 8f74 60bd 90c9 0dbe da7e ddbd a688 7c3c
00000330: 322d 7d3d 4d81 0e3e 8847 ca3d 5514 1dbd
00000340: c57f 09bd ef5b ac3d 0983 d0bd 6993 92bc
00000350: 6d5c a3bd 5f33 dc3b 2035 693a 4375 3a3e
00000360: 43c9 833d 707f bc3d 73c3 073e 90e5 303d
00000370: fb74 a8bd 48a4 cbbd 4913 e8bd c3d2 583d
00000380: 4d6f f8bd 7d31 cb3d b602 16bc 02ab 413c
00000390: 0ad3 a5bd 36fe a33d 881f d7bb 9258 0e3e
000003a0: b66c 903d d491 fd3d 45ab f03d 2be3 c0bd
000003b0: bcad ffbd 57bb 2fbe e639 07be 165d ae3d
000003c0: b8e1 1fbe d7af 3f3d bdb3 26bd 4f79 22bd
000003d0: bccc d9bd a34f e13c de34 a1bc e92a 1f3e
000003e0: b757 9f3d 64aa 8e3d dfa2 503e bfc9 cdbc
000003f0: 9c60 1abe 4bd5 56be e878 f9bd c904 7d3d
0.12189885 -0.102201305 0.06352221 0.03671013 0.08199216 -0.023964388 0.042612452 -0.14366372
-0.06813064 -0.08771321 -0.19450192 -0.043170866 0.10759045 0.17525455 0.06825506 -0.032294776
-0.114698984 0.15725018 -0.045859404 -0.014954945 -0.08273687 -0.012670435 -0.018103847 0.13258086
0.044611827 0.08446723 0.1843526 0.0014654391 -0.12140643 -0.23903121 -0.11005955 0.0557781
-0.12534538 0.108353764 -0.06906413 -0.06584536 -0.07158512 0.025077824 -0.043060657 0.15272298
0.028673038 0.029522115 0.2207678 0.012265713 -0.08178067 -0.17400585 -0.048806466 0.02437921
-0.122688346 0.03608436 0.003185036 0.017713651 -0.064778864 0.038725648 -0.033379514 0.15466057
0.060918592 0.13406147 0.12275292 0.027110333 -0.08813502 -0.1263261 -0.1113041 0.0552456
-0.031749755 0.120254375 -0.10866803 -0.007970153 0.008632439 -0.092501804 -0.06724193 0.022965629
0.06032992 -0.0015130631 0.2109779 0.071341045 0.02581004 -0.11389014 0.004532998 -0.083383195
0.096637495 -0.072978064 0.056992866 0.044937063 0.1151159 -0.016501745 0.021542298 -0.12137117
-0.06760613 -0.101977296 -0.117424555 0.017679427 0.10725144 0.15090847 0.12933801 -0.06720478
-0.019127432 0.11968366 -0.07151568 -0.060187027 -0.027625758 -0.035186227 -0.012990524 0.071389966
0.026084756 0.055361547 0.108459085 0.034040906 -0.09417494 -0.09294193 -0.11868418 0.026575008
0.075717434 0.0021706375 0.043049227 -0.022172062 0.06347245 -0.054673884 0.019669604 -0.09539781
-0.02519252 -0.11353538 -0.036366493 0.04299342 0.11674606 0.117771044 0.112215996 -0.08525825
-0.04951207 0.09698713 -0.040861323 -0.0622042 0.056690637 -0.042606603 -0.04332467 0.04135542
-0.01582425 0.017343877 0.070955954 0.049386833 0.039476495 -0.080808796 0.055768132 -0.10125779
0.06300304 0.06120332 -0.04634415 -0.12580623 0.0022972852 -0.012028065 -0.0011630818 0.030578362
0.017974945 0.08773398 0.026709452 0.026590228 0.03928891 -0.017741494 -0.04391008 0.0045710322
-0.06493912 0.05319505 -0.04542583 0.014240719 -0.05684224 0.014778924 -0.0045412118 0.064782895
0.060680605 0.06973304 0.080346115 -0.027120871 -0.14210784 -0.06256757 -0.13945304 0.07513557
-0.089256115 0.057638675 0.023234693 0.008972119 -0.08760156 0.011438001 -0.015168363 0.06451342
0.038393565 0.09294499 0.08202282 -0.07584516 -0.077697545 -0.089506194 -0.108525164 0.09730966
0.06178503 -0.112438746 0.0684881 0.036180027 0.03102022 -0.0059721502 0.04812799 -0.14754163
-0.05479866 -0.13846421 -0.10815211 0.015413439 0.06181068 0.13916512 0.09876925 -0.03834947
-0.033569116 0.084159724 -0.10181243 -0.017892556 -0.07976613 0.006719991 0.0008896161 0.18208794
0.06434872 0.09203994 0.13258152 0.043187678 -0.08225437 -0.099434435 -0.11331803 0.052935373
-0.12130604 0.099215485 -0.00915592 0.011820557 -0.08096893 0.08007471 -0.006565038 0.13900974
0.07051985 0.1238133 0.11751417 -0.09418329 -0.12484309 -0.17161308 -0.1320568 0.085138485
-0.15613449 0.046798553 -0.040698756 -0.03966647 -0.10634753 0.027503794 -0.01967853 0.15543713
0.07780402 0.06966093 0.2037463 -0.025120614 -0.15075916 -0.20979802 -0.12181264 0.06177214

transformer.h.0.attn.q_attn.bias f4 [16]
00000000: 864f 55bc d5ed b1ba 87d3 16ba 881c c93d
00000010: 3ae1 d3bd bd90 93bd f7e5 c83c c87a a3bd
00000020: 251c 83bd 8172 f0bc 26fe bd3d e394 903d
00000030: 7dee 0abd 99f5 273d 0de7 c73d 0102 773d
-0.013019448 -0.0013574908 -0.0005753566 0.09819895 -0.10345693 -0.07205341 0.024523718 -0.07982403
-0.064018525 -0.029351475 0.092769906 0.07059648 -0.033918846 0.041005705 0.09760866 0.060304645

transformer.h.0.attn.k_attn.weight f4 [16, 16]
00000000: 723d 0a3d 4e2a 2e3e 9cb1 3fbd ab28 363c
00000010: f5ac c43d 22fe c8bd 698f b3bd c351 63bc
00000020: 34d9 8f3d b5bf b73d 40d0 3b3e b57c 2dbc
00000030: f67b d0bc 1ed3 1d3d 9192 03be 7a9f 93bd
00000040: 1a93 2838 0b98 813d 391c b5bd c80e 523c
00000050: 2078 a93d 1875 cbbd 088f 0dbe 2849 073c
00000060: 29bf 023e c13d 0a3e 80d5 413e a90e a23c
00000070: 0761 4abd 7e6b febc 8d17 d6bd 9883 983b
00000080: 8781 9b3d a3eb d93d fb80 15bd 90d4 f4bb
00000090: 3571 413d 8c0d fb3c 845a 663d dcbb dfbd
000000a0: 40ae eabd a421 f3bd 7358 2c3c 5d58 873d
000000b0: 392c 11be 4f90 ce3c 3a72 013e c770 08be
000000c0: e6a3 b8bd 9c9a e2bd 2c37 653c 25cc 85bd
000000d0: c1f4 523c 9a4a f63c 5e03 63bd c033 de3d
000000e0: 39ac 70bc 505b dd3d 4400 36bd 1563 f3bd
000000f0: b269 1d3e 6f38 3abd b617 1bbd 0d90 da3d
00000100: 27f1 7c3d 07c5 1e3d da56 c63d 4d53 d63c
00000110: 3a18 cb3d 0ca2 303d f8dc 0e3d 58e8 bcbd
00000120: 5d9a 13be 20ec ffbd 2e45 37bd 4a63 00bb
00000130: d40c fdbd 2a82 8f3d 2ed9 643e f573 8ebd
00000140: bb19 88bd 0f18 97bd 51eb 0bbc 25d4 d1bc
00000150: 21be 443b e367 51bc bb6b 84bd d017 613d
00000160: 871b f43d 643c 8c3d 7a24 f6bc 97fc 6dbd
00000170: ce02 f63d 29d3 8dbb 6cf5 f1bd 4660 303d
00000180: 1c50 93bb e460 f1bb 6c2b 05be d5bc 51ba
00000190: bdea a3bd cf6a 2bbd 07c4 1abd d438 393d
000001a0: 68de 113e daef ea3d 53ff 3f3d 71c4 58bd
000001b0: 3f77 593d a69e 4c3c 6a04 37be b8d2 a53d
000001c0: 8194 3ebd 0976 1bbe 18ef a53d 6e12 36bd
000001d0: 9bd5 07bd 1c5c c93d 3514 42bc 601f b03d
000001e0: ab21 adbd 2d8f c1bc 8ee5 5abe b244 d0bd
000001f0: 84d1 083e 224f 0e3c 2f39 7b3d 4c20 fe3d
00000200: a9a4 1c3d e5c2 1e3e e8f4 cbbd 7824 003d
00000210: 8024 023e 6149 dfbd fd32 8bbd 3317 e3bd
00000220: d22b e43d 2e71 043d dee2 6d3e 30dd bf3d
00000230: 1079 0cbe 24c2 143c ea67 babd d5cd fcbd
00000240: e828 1a3d a805 e13d 09fa 453c 580b fe3c
00000250: b34c 953d 69e5 32bc 04e2 f73c d15a 8abd
00000260: 591e f8bd 9fa0 02be 468f 863c 7dfc 3b3d
00000270: 109b 01be 6376 593d 4722 193e a241 bfbd
00000280: 54be 4f3b 3cd5 bcbd 26c0 e33d b292 31bd
00000290: 55e4 bbbd ed29 c13d 43f3 df3d 6531 55ba
000002a0: 9b5d ebbd a1a1 e5bd d0e7 38be d9b0 1bbc
000002b0: 0c83 ba3c 1bd2 853c 1242 1e3e 71ce 553c
000002c0: 54ee 943d 34eb 053e c1bc 03bb 5cc5 573c
000002d0: 84b6 423d 16bb f4bc 8e3d ac3c a145 dcbd
000002e0: af1d b13c 936f e9bd 5e9b c33d 74bf bd3d
000002f0: af49 1bbe 2642 543d ce95 073d ae7a 04be
00000300: 6fd7 9e3c 6a51 46bd 749a 8f3d 5b58 833c
00000310: b9d5 07bd 9a31 af3d 5de1 c43d 6524 e5bb
00000320: 60b1 fcbd c71a edbd fd9b 18be a706 223d
00000330: 32d9 d2bc 5840 3a3c bf31 263e ab99 d1bb
00000340: 83ad 39bd 9a0b 71bd e21e 10bd 007d 043d
00000350: 6743 59bd d358 57bd 125a c93c c915 ef3d
00000360: 07cd cb3d 0fcd a03d f72a 313d e7e2 4ebc
00000370: f3c7 9c3c 106a 0fbc 7aca d2bd 8e2c 6e3d
00000380: 8e3a 663d 1c3b 6fba c5ab 8cbb f70d febb
00000390: cbf3 603b 933b 5abc ba79 54bd a937 ad39
000003a0: 828a 853d aae7 9bbc d80d 98bd 317e 1cbd
000003b0: ef8e ec3c e2d5 c83d 9579 c7bd b03e 0e3d
000003c0: 516a 17bd 45cd abbd bcfd fb3b ed8b 5fbd
000003d0: 8fd1 443d 4974 f9bc 82a1 93bd 110b 843d
000003e0: 6eef ecbc bf04 ee3d 64ad bfbc 91bf 87bd
000003f0: 83d0 df3d 6e02 4cbd d3c7 a1bc 9d57 a43d
0.033750005 0.17008325 -0.04680024 0.011118094 0.096033014 -0.09814097 -0.08767588 -0.013874474
0.0702385 0.08972112 0.1834116 -0.0105888145 -0.025449734 0.038531415 -0.1284888 -0.07208152
4.019132e-05 0.06327828 -0.08843274 0.012820907 0.08274865 -0.09934443 -0.13824093 0.008257188
0.12768234 0.1350012 0.189291 0.019782381 -0.04940894 -0.031057116 -0.10453711 0.004654359
0.07593065 0.10640647 -0.03649996 -0.0074716285 0.047227103 0.030646108 0.056238666 -0.10924503
-0.11459017 -0.11871651 0.010519135 0.06608651 -0.14177026 0.025215296 0.1264123 -0.13324271
-0.09015636 -0.11064646 0.013990205 -0.06533078 0.012875737 0.03006487 -0.055423133 0.10849714
-0.014689499 0.10808432 -0.044433847 -0.11884133 0.15372351 -0.045463976 -0.03786441 0.10672007
0.06175342 0.03876212 0.09684534 0.026162768 0.0991673 0.04312329 0.0348787 -0.092240036
-0.14414354 -0.12496209 -0.04474371 -0.001959043 -0.123559624 0.07007249 0.22348472 -0.06955711
-0.06645533 -0.07377636 -0.0085399905 -0.025613854 0.0030020552 -0.012781116 -0.064658605 0.05495435
0.11919313 0.06847456 -0.03004669 -0.058102217 0.12012254 -0.004328151 -0.11814389 0.043060564
-0.0044956338 -0.0073662866 -0.13004845 -0.00080008555 -0.08003757 -0.041849907 -0.037784602 0.04522021
0.14244998 0.11471529 0.046874356 -0.052921716 0.053092238 0.012488997 -0.17872778 0.08096832
-0.046528343 -0.15181746 0.08102244 -0.04445117 -0.033162694 0.098320216 -0.011845638 0.08599734
-0.08453687 -0.023627842 -0.2137663 -0.101693526 0.13361174 0.008685859 0.06133383 0.12408504
0.03824297 0.15504034 -0.099588215 0.03128478 0.12709236 -0.10902668 -0.067968346 -0.11088409
0.111411706 0.0323345 0.23231074 0.0936836 -0.13718057 0.00907949 -0.09101851 -0.12343947
0.037636667 0.10987407 0.012083539 0.031011268 0.0729002 -0.010918953 0.03025914 -0.06755603
-0.12115163 -0.12756585 0.01642574 0.04589509 -0.12656808 0.053091418 0.14954482 -0.0933869
0.0031699138 -0.09220359 0.11120634 -0.04335279 -0.0917441 0.09431825 0.1093507 -0.00081326655
-0.11492463 -0.11212469 -0.1805718 -0.009502613 0.022767566 0.016335538 0.15454891 0.013049708
0.0727202 0.13078004 -0.002010152 0.013169613 0.04753734 -0.029874366 0.021025445 -0.10755468
0.0216206 -0.11398234 0.09551118 0.092650324 -0.15164827 0.051820897 0.03310185 -0.12937424
0.019389836 -0.048417486 0.070118815 0.016033342 -0.033162806 0.085543826 0.09613297 -0.006992864
-0.12338519 -0.11577373 -0.14903255 0.039557125 -0.025738332 0.01136788 0.16229914 -0.0063964925
-0.04533149 -0.058848955 -0.035185702 0.03234577 -0.053042796 -0.052574944 0.024579082 0.11674077
0.09951215 0.07851612 0.043253865 -0.01262734 0.019138312 -0.008753315 -0.102925256 0.05814796
0.056208186 -0.00091259344 -0.0042929375 -0.0077531296 0.0034325 -0.013319868 -0.0518739 0.000330386
0.06520559 -0.019031364 -0.074245155 -0.038206283 0.02887675 0.0980642 -0.09739987 0.034727752
-0.036966626 -0.083887614 0.0076901596 -0.054576803 0.048051413 -0.030450957 -0.072085395 0.06447423
-0.028922763 0.11621999 -0.023398109 -0.06628335 0.10928442 -0.049807005 -0.019748604 0.080245234

transformer.h.0.attn.k_attn.bias f4 [16]
00000000: e071 a737 cf17 4d38 c692 e3b7 9fc6 e7b7
00000010: 8324 5eb8 f1ac 1139 36de 9238 3175 cbb8
00000020: bff6 9f38 a48e b8b5 bd56 09b8 4460 d1b8
00000030: 56a3 e5b8 c627 8db8 8eea 43b8 0cd0 7338
1.9960979e-05 4.8897982e-05 -2.7128855e-05 -2.7629836e-05 -5.296293e-05 0.00013892703 7.0032125e-05 -9.701623e-05
7.627671e-05 -1.3750582e-06 -3.2744127e-05 -9.9838275e-05 -0.000109499946 -6.730812e-05 -4.671007e-05 5.8129473e-05

transformer.h.0.attn.v_attn.weight f4 [16, 16]
00000000: 6fec 463c 944a 87bb 6ccd 68bd 7ef6 c73c
00000010: 56bd b33c 7a67 193d b353 e9bb 1dd9 8abd
00000020: 2d7f e8bb 1789 70bc 5a96 0c3d 13a4 49bc
00000030: 26d0 d3bd 3338 293c 2384 c3bc 3c13 ec3c
00000040: 280a 8a3d 7cf4 963c 6c06 3abd bf87 6a3d
00000050: 0540 93bb 2d85 24bd 5059 163d aaec 2cbd
00000060: b63f 073d 5ba8 723b d283 913c f0ab 4a3c
00000070: a29e abbc 33ba 5b3d 7fd4 dfbc 9975 3abd
00000080: b2ea 3b3c c6c9 333a 808b 913c 3339 f43c
00000090: d11a b4bc 6431 743c 0b50 983b 4841 00bd
000000a0: 5d6e 81bc dc6e 3fbc 4cde 863d e6f8 31bc
000000b0: 1bb7 96bd 19ff f73b 8e24 e4bb ab09 a03c
000000c0: 39fd 8a3c b6ed 453c b1c2 cb3c c3fa bdbc
000000d0: 5b66 d2bb ea88 5cbd 7454 ae3c 9d1a 383c
000000e0: c0bd 303d ad89 413d 6cd9 d8bc 07f5 81bb
000000f0: 6188 873d e4a3 c4ba 03f0 90bc a86a 8ebc
00000100: ede8 963c 0489 ff3c 29ac 5ebc f154 6bbd
00000110: 7d84 4dbc 8847 55bc c8f4 4fbc edca 423d
00000120: d88c 37bc 0e00 1a3d 1bf1 fdbc fe9e 8db9
00000130: a167 933d ed10 8cbc 746c 163b fc8e 823c
00000140: a848 32bc 6079 b33b 5b69 2abd b24f 5cbd
00000150: 2919 093b 1ebd 243d d694 a3bc 76b7 3e3d
00000160: 117b 28bc c858 1d3d 01ea 23bd d39d c1bc
00000170: 3337 4a3d 29d8 dbbc 306f 1a3c d745 4e3d
00000180: 9320 b83d 8b72 a9ba fb02 60bc 0348 c73c
00000190: 9033 323c e9a4 a8bd ff43 9b3c e9f1 5b3c
000001a0: 68d4 d3bc 8fcf d5bc 67ff 47bc 9125 40bc
000001b0: 80ad 1d3d f3ea 803c b068 4bbd 90f1 25bd
000001c0: 209d 72bd 86a5 df3c 5788 963b da10 3dbc
000001d0: 9ff5 92bb 0a91 c13d 1167 6c3c 0dde 2bbd
000001e0: 32d5 19bc aea7 4ebd 1726 233d 0332 063d
000001f0: 7e9a d5bd 6068 e83b 1e56 ad3b b4dd 493d
00000200: 02de cabd ee9b 363c ba8f ec3c 5560 93bd
00000210: 5a2e 6c3d 5929 503d 7986 abbc c02f 313d
00000220: 4154 01bd 0bc5 47bc 3716 0c3c 5c15 283d
00000230: 8dba 9a3c 23c4 d5bc b3d0 c33c 2180 053d
00000240: 5aa8 e33d d239 863b 9b88 2cbd 0efb 44bb
00000250: 024f 37bb c8a1 31bd 4063 d73c de37 3ebd
00000260: fb85 633c 4f1b 40bc dfb8 7b3c fd77 373c
00000270: 983a 2bbd 08c1 303d de73 9fbc 5e70 33bd
00000280: 41a1 a9bc c66a 2ebb 8f1b e63b 07ed d93c
00000290: f755 f33c 19a3 3d3d 6e94 cd3c 15b3 0abd
000002a0: fb7a 27bc b9c0 9fbc 1da3 8f3c e8d1 703b
000002b0: 4087 86bd 2ced 0f3c 49d2 0a3c e992 26bb
000002c0: 167f d9bb 16b5 423c 45a3 ee3c 5c31 823c
000002d0: 6e24 a83b b242 2d3d 14b8 7f3c 7cc8 38bd
000002e0: 414e 4e3c a7a3 2bbd 55cf ac3c fd2d d5b7
000002f0: b3ba 9ebd 0a95 1b3d 1252 3b3c 55bd b73b
00000300: 03db 5cbc 3e5a a03c c954 0cbc f357 c73b
00000310: eed4 6abc 3669 ac3d 2b29 b33b 790e 79bc
00000320: 2478 dabc c920 fbbc 176f 2dbc 8b18 7dbc
00000330: bd27 d1bd 0c87 cd3c 7395 94ba 4b2f 873c
00000340: b403 fe3c 754e a23b fb4a 1cbc 60a7 c33c
00000350: 0f74 6c3c 0994 84bc aa6f 37bd 9ca0 8abd
00000360: b338 b9bb 9897 c0bc 5cf9 cd3c 18c2 8b3b
00000370: 257b 51bd bcc7 753c be42 37bd 3223 afbc
00000380: 574b 99bc 883d 153b c7b4 713c 9998 bb3c
00000390: 6ac3 cb3c ec9b 243d 9a9a 353c b987 9cbd
000003a0: a8ee 6fbc 1f73 1bbb 4cde a93d 404b be3c
000003b0: 90ef b7bd d4de d73c 74b5 b33a 955c ffbc
000003c0: 4fc7 a6bd 532d d9bc 9a08 8e3d 4df1 ff3b
000003d0: 096f b73b 5f1e d53a 272f 28bc 223a 743d
000003e0: 9cb1 49bc 42b4 82bc 2580 1c3d c95b a6bc
000003f0: baff f03b ad95 70bd b2a4 013d db06 783d
0.012141331 -0.0041287635 -0.05683653 0.024409529 0.021940868 0.0374522 -0.0071205734 -0.06779692
-0.0070952387 -0.014681122 0.034323074 -0.012307185 -0.103424355 0.01032834 -0.023866719 0.028817765
0.067402184 0.018427126 -0.04541628 0.057258364 -0.0044937157 -0.04016607 0.03670627 -0.042217888
0.033019744 0.0037026617 0.017763052 0.012370095 -0.020949665 0.05364437 -0.027323006 -0.045522306
0.01146953 0.00068583747 0.017766714 0.029812431 -0.021985443 0.014904354 0.0046482137 -0.031312257
-0.015799696 -0.011684146 0.065853685 -0.010862565 -0.07359143 0.007568252 -0.0069623655 0.01953586
0.01696645 0.0120806005 0.02487311 -0.023190862 -0.006420893 -0.05384151 0.021280505 0.011236814
0.04314971 0.04725044 -0.026470862 -0.003965977 0.06617809 -0.0015002456 -0.017692572 -0.017384842
0.018421615 0.031193264 -0.013590851 -0.057454053 -0.012543795 -0.013017543 -0.012692638 0.047556806
-0.011203013 0.03759771 -0.030998757 -0.00027012074 0.071975 -0.017097915 0.0022952827 0.01593732
-0.01088158 0.0054771155 -0.04160438 -0.05378694 0.0020919538 0.04021942 -0.019968431 0.04656168
-0.010283248 0.038414747 -0.040018085 -0.023634827 0.04936905 -0.026836472 0.009425923 0.050359573
0.08990588 -0.0012927813 -0.013672586 0.02432633 0.010876551 -0.08234579 0.018953322 0.013424375
-0.02585812 -0.026099948 -0.012206889 -0.0117277065 0.03849554 0.015737033 -0.049660385 -0.040513575
-0.059231877 0.027300607 0.0045938897 -0.011539662 -0.0044848467 0.09451492 0.01442887 -0.04195981
-0.009389209 -0.05045288 0.039831247 0.03276254 -0.10429858 0.0070925206 0.005289807 0.0492837
-0.09905626 0.011145575 0.028877128 -0.07196108 0.05766139 0.050820682 -0.020938145 0.04325843
-0.03157449 -0.012192975 0.008550218 0.041035995 0.018887782 -0.026094502 0.023903226 0.032592896
0.11116095 0.004096248 -0.042122465 -0.0030056867 -0.0027970676 -0.043367177 0.026292443 -0.046439998
0.013886924 -0.011725261 0.015363901 0.011198041 -0.041803926 0.04315284 -0.01946443 -0.043808334
-0.020706775 -0.0026613935 0.007022328 0.026602281 0.029704077 0.04629812 0.02509519 -0.033862192
-0.010222192 -0.019501077 0.017533833 0.0036746208 -0.06568766 0.0087845735 0.008472987 -0.0025417155
-0.0066374643 0.011883995 0.029130587 0.015892677 0.005131296 0.042299934 0.0156078525 -0.04511307
0.012591899 -0.041904118 0.021094957 -2.5412994e-05 -0.07750454 0.03798393 0.011433141 0.005607287
-0.013479951 0.01957428 -0.008565136 0.0060834824 -0.014332993 0.08418505 0.005467554 -0.015201204
-0.026668616 -0.030655282 -0.010585568 -0.015447746 -0.102126576 0.02508881 -0.0011336043 0.016502043
0.031007625 0.0049532005 -0.009539361 0.023883522 0.014431967 -0.01618387 -0.044784226 -0.06768915
-0.005652511 -0.023509786 0.025143318 0.004265081 -0.05114283 0.015001234 -0.044741385 -0.021379087
-0.018712683 0.0022772271 0.014752573 0.022899913 0.024873454 0.04018776 0.011084223 -0.076430745
-0.014644302 -0.002371974 0.08294353 0.023229241 -0.0898124 0.02635137 0.0013710693 -0.031172076
-0.08143484 -0.02651087 0.06935234 0.0078107477 0.005597953 0.0016259662 -0.010265148 0.059625752
-0.012310412 -0.015955094 0.038208146 -0.020307438 0.0073547037 -0.058736492 0.031651206 0.060553413

transformer.h.0.attn.v_attn.bias f4 [16]
00000000: 6c79 923a bd93 c5ba d312 5dbb c572 17bc
00000010: 7762 77bb ec01 17bc 871b d0bb b593 333b
00000020: d758 8b3b 9865 d33b a90d de3b aa55 823b
00000030: 456c 5e3b 79c6 803b 7533 20ba d3a4 33bc
0.0011175103 -0.0015073937 -0.0033733144 -0.009243672 -0.0037747899 -0.009216767 -0.0063509378 0.0027401273
0.004252534 0.00645132 0.0067765308 0.003977497 0.0033939045 0.00392991 -0.00061111833 -0.01096459

transformer.h.0.attn.c_proj.weight f4 [16, 16]
00000000: a874 0e3d d008 29bd 29e1 c33c 19a2 c7bc
00000010: 9971 f2bb 559c 763d 6f4c e3bb b387 2e3b
00000020: e915 063d a58a 5f3c cf97 943a 1a5d 213c
00000030: e6f3 1dbd 9d5f d6bc 7ab1 32bd e4fb dbbc
00000040: 6819 e13b c0c3 a73c 0b28 8cbd 5593 02bc
00000050: 9271 3cbd 9b84 b3bb c4e8 883d bc9f a1bd
00000060: dd0d 143d 55a9 b33d f42b 583d 29c2 bebd
00000070: d5ac ccbb e46d 9abc cf93 cfbc 2c81 d9bc
00000080: 6649 3a3c 58e3 5c3c 4530 8dbc 3528 663b
00000090: d662 8bbc f687 94bc 8b1a df3c 7a5d c9bc
000000a0: f826 b33c 7e6d 043d 22d3 4a3c 6afc 19bd
000000b0: 4729 f9ba 3c56 aebb a28f 65bc 2758 13bb
000000c0: d455 8cbb b20d 603c 2762 18bd 407e 82bc
000000d0: 7f42 86bc 6fef 40bd b60d c13c 5c1b 0dbc
000000e0: a830 24bc a7cb 20bc 7a39 863c 56f2 d039
000000f0: 5361 fb3c ccc2 12bc 8149 773c 7aa3 19bc
00000100: d056 e13c bec2 b4bc 3494 2cbc 0979 bbbc
00000110: 2a5f 343b 7689 b7ba 9544 3d3c 26b5 a93b
00000120: 67ca 8a3c a6a8 2ebc c8e7 143c e652 4c3c
00000130: 5922 1cbc 8b99 9cbc 4071 ccbc 970e b1bc
00000140: 51b2 e6bc ec58 6d3d e7a2 72bd f50b d23b
00000150: 2c28 3fbc bec8 88bd 1330 633d 1bcd 73bd
00000160: 9d7d b33a 140a 523d 607a 2b3d ab6f b0bd
00000170: 888e ab3c e633 043c fba5 393c a9aa 16bc
00000180: 17da 533c 37ce eabb 871f 23bc 94e3 25bc
00000190: 3629 0bbc 21c4 fb3a 8e13 8b3c 5842 c4bb
000001a0: 6bf7 353c c3cb 43ba 3526 4c3c 316e 033c
000001b0: c8e2 cbbb ebe3 0ebc c601 b3bc 0dc2 89bc
000001c0: a0f6 2dbd 45b6 f13c d7a8 ac3c b2b4 103d
000001d0: 6acb 893c 56bc 8cbc 1bdf 35bd a001 b93c
000001e0: 18f4 21bd 5f69 5dbc 3666 03bd b001 5c3c
000001f0: dbc1 e53c ca35 0f3d cd07 413d 9402 253d
00000200: ff43 9dbc d88b 82bc 21e8 683d 18ea 803c
00000210: 9367 9b3c 233b 163d 9de2 25bd 0cae 453d
00000220: 8003 a7bc fa91 24bd b15e 1bbd 8a45 6d3d
00000230: 0778 0ebc 5d5d b03c 3904 5f3c 1bd3 ab3c
00000240: be43 9ebc fa6e 8f3c 3412 223d 2897 153d
00000250: 9118 f63c 5075 903b 83b5 49bd b8f7 dd3c
00000260: 61e5 f0bc 7489 a5bc a190 31bd 0a71 aa3c
00000270: 8167 123c 2909 9f3c 6543 113d 08ca 253d
00000280: e66a cebc f8e8 d23c 7f53 b0ba 9828 d43c
00000290: 9000 09bb 9659 9abc 8774 b1ba c3b1 7fbb
000002a0: 8a0d 97bc 45a8 283c 3a09 e83a 5c39 17bc
000002b0: e8e7 ad3c f0d3 c83c abda c13c 359d 9d3c
000002c0: daee f9ba c044 3bbc cee2 2f3b a7d1 22bc
000002d0: b0ea 90b5 e5cb 93bc 8866 7dbb ba36 963c
000002e0: c7e7 37bc b95b 33bd 3bc7 27bb aa8d 213d
000002f0: 8e73 ae3c 7219 58bc 151a 093c d9d8 adbc
00000300: 0e33 9e3c af52 06bd 6dc1 3d3d 1a35 d7bb
00000310: 1f91 933c 04c9 573d 1b34 c5bc 4c7e 323d
00000320: 8533 bc3a cc17 2bbd b8a8 a5bc 46f5 453d
00000330: 88e3 71bc f79c 2f3b 8377 d5bb e16c cb3b
00000340: 4522 243d 6340 0cbd c7df 7cb6 1b11 14bd
00000350: 8ce0 c8bc acaf 333d 1854 543c cae8 b7bc
00000360: f241 d93c 1412 263d 5872 893c fcf6 18bc
00000370: d466 a2bc 3521 0dbd 0063 0cbd f672 f4bc
00000380: 34e4 c23c 5db9 8e3b 1a3a 19bd fe3d 1abd
00000390: ec20 d1bc f5f8 93bc 9e8e 213d e50c ecbc
000003a0: 4023 d63c aeed e63c 6232 ed3c fdf3 c7bc
000003b0: d50e 83bb 3d13 bcbc 418f 08bd 8125 09bd
000003c0: 7766 61bd b364 593d 3eaa 67bc 8a20 273d
000003d0: e0e4 e23c 6381 1abd f306 2bbb b6c3 0ebb
000003e0: 100b 3bbd 0e83 21bb e7a4 98bc 0c79 18bc
000003f0: 1fac 033d 453a ed3c a66b 193d ec91 f73c
0.03477922 -0.04126817 0.023911076 -0.024369286 -0.007398796 0.060207684 -0.006936602 0.0026631176
0.03273574 0.013643895 0.0011336746 0.009848857 -0.038562678 -0.026168639 -0.043626286 -0.02685351
0.0068694837 0.020479083 -0.06843575 -0.007969697 -0.046006747 -0.0054784543 0.066850215 -0.07891795
0.036146034 0.08772532 0.052776292 -0.09314377 -0.006246189 -0.018851228 -0.025339035 -0.026550852
0.011370039 0.013481937 -0.01723493 0.003511918 -0.017014902 -0.018131237 0.027234336 -0.024580706
0.021869168 0.032330982 0.01237944 -0.037594236 -0.0019009494 -0.0053203385 -0.0140112955 -0.0022482963
-0.0042826924 0.01367514 -0.03720298 -0.015929341 -0.01638913 -0.04710334 0.023566108 -0.00861248
-0.010021366 -0.0098141795 0.016384829 0.00039853406 0.030686056 -0.008957576 0.015093208 -0.009377355
0.027507216 -0.022065517 -0.010533381 -0.022884862 0.0027522543 -0.0014002759 0.011551996 0.0051790653
0.016942216 -0.010660326 0.009088464 0.012470936 -0.0095296735 -0.019116184 -0.024956346 -0.021613402
-0.0281612 0.05794613 -0.059237387 0.006410117 -0.011667293 -0.066789135 0.05546577 -0.059521776
0.0013694052 0.051279142 0.041864753 -0.08615049 0.020941988 0.008069014 0.011331077 -0.009195962
0.012930415 -0.007165696 -0.009956247 -0.01012506 -0.008493712 0.0019208231 0.016977098 -0.005989354
0.011106352 -0.00074690225 0.012460281 0.008021877 -0.006222103 -0.008721332 -0.021851432 -0.016816163
-0.042471528 0.029505858 0.021076603 0.035328574 0.016820628 -0.01717965 -0.044402223 0.022583783
-0.039539427 -0.013513892 -0.032079898 0.013428137 0.028046539 0.034963407 0.04712658 0.04028566
-0.019197462 -0.015935823 0.056862 0.015736625 0.018970286 0.03667749 -0.04049932 0.048261687
-0.020387411 -0.040178277 -0.0379321 0.057927646 -0.008695609 0.021528894 0.013611847 0.020974686
-0.019319411 0.017508972 0.03956814 0.036521107 0.030041011 0.004408516 -0.04924537 0.02709566
-0.029406251 -0.020207144 -0.04335082 0.020805854 0.00893581 0.019413548 0.035464663 0.040475875
-0.025197458 0.025745854 -0.0013452618 0.025898263 -0.0020904876 -0.018841546 -0.0013538756 -0.0039015866
-0.018439073 0.010294025 0.0017702945 -0.009229984 0.021228746 0.024515122 0.02366384 0.019240001
-0.0019068376 -0.0114299655 0.0026838067 -0.00993768 -1.0797139e-06 -0.01804156 -0.003866585 0.018336643
-0.011224694 -0.043788645 -0.0025600928 0.039441742 0.021295335 -0.01318966 0.008368035 -0.021221565
0.019311454 -0.032793697 0.046327043 -0.0065676095 0.018013535 0.052681938 -0.024072697 0.043577477
0.0014358616 -0.04177074 -0.020222053 0.048329614 -0.01476372 0.002679644 -0.006514491 0.0062080477
0.040071744 -0.03424109 -3.7681182e-06 -0.036149126 -0.024521135 0.043868706 0.012959503 -0.02244987
0.026520703 0.040544584 0.016778156 -0.009336229 -0.019824423 -0.034455497 -0.0342741 -0.029839974
0.023790456 0.004355593 -0.037408926 -0.037656777 -0.025528394 -0.018063048 0.03944265 -0.028814742
0.026139855 0.028189506 0.028954688 -0.024408335 -0.003999571 -0.022958392 -0.033339743 -0.033483032
-0.05502936 0.05307455 -0.01413971 0.040802516 0.027697027 -0.03772105 -0.0026096671 -0.0021784133
-0.045664847 -0.0024644765 -0.018633319 -0.009306204 0.03214657 0.02895845 0.037456177 0.030220948

transformer.h.0.attn.c_proj.bias f4 [16]
00000000: ab00 63bb 80c3 583b aa95 1bba 8fa5 a13a
00000010: cf94 99bb 01c1 043a bc74 543b bd0f 2f3a
00000020: 0b03 e9ba 011d 3fbb 70da 8039 1686 0fbb
00000030: 7129 973b 2a2d 80bb 5db2 903b ae16 0e3c
-0.003463785 0.0033075511 -0.00059350824 0.0012332666 -0.004686929 0.000506416 0.0032418212 0.00066780654
-0.0017777396 -0.0029161575 0.0002457681 -0.002189999 0.0046130945 -0.003911634 0.004415794 0.008672399

transformer.h.0.attn.multihead_attn.in_proj_weight f4 [48, 16]
00000000: 0861 12be 45a2 863e c803 e43d ea72 3e3d
00000010: 2108 d53d 1b6b 903d 99aa 88bd 53c6 8a3e
00000020: 3551 95bb b495 3ebc d604 e8bd 754a a53d
00000030: b1b5 3c3e 661b 7d3e b12f 9cbd 931e 203e
00000040: c357 003e 972c 7cbe 1322 893e 7cfe 4cbe
00000050: c6a5 44be 6832 153e 3776 f3bd 8cff 09be
00000060: d0ea 873e 0abc cc3c bc6d 353d 3fbd 823e
00000070: 90e4 b8bd f0ce 7fbe 1cc2 9a3e e891 8f3c
00000080: 2a32 83be 8520 a0bb e136 8a3a da6c 4d3e
00000090: edd4 323e cb17 373e b41a 583e 8f99 243e
000000a0: eeda 263e e387 53be dc00 9b3e 7208 eb3d
000000b0: 976a 0d3e b1e0 24be 7ed4 88be b8ba 623e
000000c0: f16d 163e 770a 96be 6c4f 8fbe da6e 8e3e
000000d0: 58ca 1dbe e06c 223e 5643 b0bd 8877 653e
000000e0: da01 20be ea14 733e a127 d1bc 42be 76bd
000000f0: f985 273e 0722 963e 3c96 95be 3fc5 64be
00000100: 0370 33bd 5a7c 493e 7728 2c3e d634 433e
00000110: c7df 7dbd e662 ad3d 9448 cdba 4e46 8cbe
00000120: e52d 39be ab43 423e 8d1e c53b 492d 0f3d
00000130: b644 753e 1d7c 34bb be1a 90be 52cc 0d3e
00000140: ac6a 6a3e 4773 123c 4af5 3c3e b236 fa3d
00000150: cc99 0b3e 3545 9abe 6c89 013d ee3a a8bd
00000160: 9dae 15be 2503 4ebe 5510 913e c0f6 44bc
00000170: be44 80be 7cba d93d 999f 983e d500 133e
00000180: 9ec8 09bd 78f0 babd 923f 3f3e 691c 64bd
00000190: b451 90be f019 563d 40c8 893e 9f68 45be
000001a0: 9b3e 43be 967f 143e 36ea 993e b14d 0abc
000001b0: 6da5 9c3e 7bf5 e6bb 825b 373e b3a9 923e
000001c0: 3f73 edbd 542d 1ebe 8322 973e e448 5abe
000001d0: 525d 5a3e f7dd 993e c2a9 8c3e c190 213e
000001e0: 3cba 543e fbf4 e23c 9509 1b3e bf32 89be
000001f0: 420e e13d 933a 6abe e21c 89be e58f ce3d
00000200: 403a 81be 938f 5cbd c6b5 51bd 9dba ac3d
00000210: f2fa 92be 5c5d 5dbe 7188 803e a83e 833e
00000220: e458 5fbe 3461 283e 396f 133e 902e b73d
00000230: 0ec1 1cbe 9802 723e f4cc 993e 421e 2f3e
00000240: 591c 3f3e 2283 a63d d616 fe3d 8dcb 323d
00000250: 6d2f 1fbe 9b0a 823e ab28 80be 1362 27be
00000260: 28d8 3d3e 7f5d 63be effe fdbb 6c55 08be
00000270: f1c5 7a3e 4619 8c3e c0c9 49bc 1dfa 3c3d
00000280: c822 75be ba67 e73d d5f1 2f3d 0b2b 1b3e
00000290: 08b8 31be 2d50 7d3e 43d7 5f3e 7fbc 72bc
000002a0: ac9d a03d 9074 893e 3139 4b3e 6cf0 563d
000002b0: 7ec0 3abd cf22 dd3d 25e2 873e 59e9 05be
000002c0: 1db4 c0bc 8fb5 56bd 94ec aebd c1c4 79bd
000002d0: 1632 07be 50c7 1a3e 34d6 edbd f94f 413e
000002e0: 0d35 49be 601c 83be 885d 2fbe 4c0a 5f3d
000002f0: bec9 8c3e 21c0 3bbe 4751 b13d 2a69 8bbd
00000300: 8cb5 823e cea4 46be 1d5d 08be 22e6 93be
00000310: 4ebf 34be 6f4e 5f3e 052c d23d a98f 9a3d
00000320: 001e 79bd c52b 4ebc d5d3 753d 33f1 12be
00000330: d255 143e 5c83 a23c 1eb4 9abe e3fb 96be
00000340: 92bd 303e 5816 743e e031 bbbd af1c 41be
00000350: 1d54 85be a7fc f7bb c236 28be 8e30 663e
00000360: 418a 82be 0fd4 bb3d 04f7 47be 22c7 543e
00000370: ba99 c83d 89dc 533e 1dc1 093d ebe4 033e
00000380: 8c1d 12be dcfd c7bc 5f2f 6b3e a5b1 423d
00000390: 7469 2e3d 94a9 d63d 4364 8ebe 3e59 3bbe
000003a0: f1a9 583d f38e 863e 82b6 00be 04b8 97be
000003b0: 5401 92be 317e 6b3d 89d7 94bd 305c d0bd
000003c0: 45e0 403e f690 f4bb 6531 77be 0ab9 8abe
000003d0: 2f28 6cbe 1d61 51be 230b 25be c7ef 38bd
000003e0: b47d 69be 8f4a 77be 3abf 36bd 8ed1 0d3e
000003f0: d598 a23d c4d9 74be 9dce cf3d e860 ee3d
-0.14294827 0.26295677 0.11133534 0.04649631 0.10401941 0.07051679 -0.06673164 0.27104434
-0.0045568 -0.011632372 -0.113290474 0.08070842 0.18428685 0.24717483 -0.07626284 0.15636663
0.12533478 -0.24626385 0.2678381 -0.20018953 -0.19203863 0.1457001 -0.11887782 -0.1347639
0.26546335 0.024992008 0.044294104 0.25535008 -0.0902797 -0.24981284 0.3022622 0.017525628
-0.2562421 -0.004886689 0.001054492 0.20061055 0.17464037 0.1788017 0.21103936 0.16074203
0.16294453 -0.20657305 0.30274093 0.1147622 0.13810192 -0.16101338 -0.2672462 0.2214154
0.14690377 -0.2930486 -0.27990282 0.27818948 -0.1540922 0.15861845 -0.08606593 0.22408879
-0.15625706 0.23738447 -0.025531592 -0.060240038 0.163597 0.29322836 -0.29216182 -0.22340868
-0.043807995 0.19676343 0.16812311 0.19063124 -0.06198099 0.08466129 -0.0015661889 -0.27397388
-0.18083914 0.18971126 0.006015605 0.034955297 0.23951992 -0.0027539798 -0.28145403 0.13847473
0.22892255 0.008938617 0.18452945 0.122174636 0.13632888 -0.30130926 0.031625196 -0.08214365
-0.14617391 -0.20118387 0.28332773 -0.01202172 -0.25052446 0.10631272 0.29809263 0.14355786
-0.03363859 -0.09127897 0.18676594 -0.055691157 -0.28187335 0.05227083 0.2691059 -0.19278191
-0.19066851 0.14501795 0.300615 -0.008441375 0.3059496 -0.0070483065 0.17906001 0.28645095
-0.11594247 -0.15446979 0.29518518 -0.21316868 0.21324661 0.30052158 0.27473265 0.15777875
0.20774168 0.027704706 0.15140374 -0.2679653 0.109890476 -0.22873907 -0.26779848 0.100860395
-0.25239754 -0.05384786 -0.051198743 0.08434031 -0.2870708 -0.21617645 0.25104097 0.2563374
-0.21811253 0.1644333 0.14397897 0.08944428 -0.1530802 0.23633802 0.3003918 0.17101386
0.18663158 0.0813048 0.12406699 0.043651152 -0.15545435 0.25398716 -0.25031027 -0.16346006
0.18539488 -0.22203635 -0.0077513377 -0.13313836 0.24489571 0.27363032 -0.012316167 0.046136964
-0.23939049 0.11299081 0.04295524 0.15153138 -0.17355359 0.24737616 0.2185946 -0.014815449
0.078425735 0.26846743 0.19846036 0.052475378 -0.04559373 0.10797655 0.26539722 -0.13077296
-0.023523385 -0.05241924 -0.085412174 -0.060978655 -0.132027 0.15115094 -0.11613122 0.18878163
-0.19649144 -0.25607586 -0.17125523 0.05445318 0.27497667 -0.1833501 0.086580805 -0.06807168
0.25529134 -0.19398805 -0.1331677 -0.28886515 -0.17651102 0.21807264 0.10262302 0.07546932
-0.060819626 -0.012583678 0.060016472 -0.14349823 0.14485863 0.019838028 -0.30215544 -0.2948905
0.17259815 0.23836648 -0.09140372 -0.18858598 -0.26040736 -0.0075679603 -0.16427138 0.2247946
-0.25496104 0.09171306 -0.19527823 0.20779088 0.09794946 0.20689596 0.033631433 0.12880294
-0.14269084 -0.024413042 0.2296729 0.047532696 0.042581037 0.10481563 -0.2781087 -0.18295762
0.052896444 0.26280937 -0.12569621 -0.2963258 -0.28516638 0.057493392 -0.072676726 -0.10173833
0.18835552 -0.0074635698 -0.24139936 -0.270943 -0.23062204 -0.20447202 -0.1611753 -0.045150544
-0.22801858 -0.24149536 -0.04461596 0.1384947 0.07939307 -0.23911196 0.1014683 0.11639577

transformer.h.0.attn.multihead_attn.in_proj_bias f4 [48]
00000000: cccf 95bd 19c9 d23c 45af 553d 0b08 b43c
00000010: 8bf8 513d ff38 2d3e 0971 913d ec28 dfbd
00000020: c469 a63d 9d87 473e 64f3 20bd e827 71bc
00000030: 5db6 81bd 72a7 fabd 55d2 10bd 5f00 453d
00000040: b334 9cb7 a6ff 8d37 84f4 4434 bb18 0239
00000050: c77d 9b38 9c6b 6f38 6aa7 6837 6611 adb8
00000060: 3304 6935 24e9 a133 855d d638 55f7 f238
00000070: 8f26 12b8 7762 85b7 6181 37b8 fe5d 4eb8
00000080: 7b4f 793b 6652 06bc fd50 2839 3dad cc3b
00000090: cd18 75bb 2429 533b e578 803b f3ad e3bb
000000a0: 769a 25bc 8593 2fbc 8929 063c 79f2 d83b
000000b0: 3b65 04ba 062a 32bc 048c f0b8 987a 7ebb
-0.07315025 0.025730656 0.052169103 0.021976491 0.05126242 0.16916274 0.07101638 -0.10896477
0.08125642 0.19485326 -0.039294615 -0.014718987 -0.06333611 -0.12238969 -0.03535684 0.048096057
-1.862119e-05 1.6927555e-05 1.8342877e-07 0.00012406979 7.414404e-05 5.708226e-05 1.3867257e-05 -8.2525235e-05
8.6805375e-07 7.539555e-08 0.000102217346 0.000115855284 -3.4845023e-05 -1.5900687e-05 -4.3751093e-05 -4.9201764e-05
0.0038041759 -0.008198356 0.00016051899 0.0062462375 -0.0037398816 0.0032220567 0.0039206618 -0.0069482266
-0.010107627 -0.010716324 0.008188614 0.006620702 -0.0005050485 -0.010874277 -0.00011470172 -0.0038830396

transformer.h.0.attn.multihead_attn.out_proj.weight f4 [16, 16]
00000000: 5e84 91bd fd71 2b3d adef b63c 2233 66bc
00000010: a4a3 f0bc ff54 863d dcb9 993c 585e 81bd
00000020: 98cf 8dbc 46cf 8bbc c87d 863b 3aa0 3d3c
00000030: 3901 873d 391d f43b 2286 c73b fc2e e83c
00000040: 0d19 453d 5a8d 78bc 98f1 b5bd e24c 74bc
00000050: 06f1 1bbd c75b 9ebd 0426 b63c 187a e73c
00000060: 7f96 dc3b 2bb0 0e3d 0e02 11bc 8689 c83b
00000070: b046 8cbd fc06 8d3c f733 62bd 4566 89bc
00000080: a28a 77bd c085 59bd 1723 593d 9f74 0f3d
00000090: 0fc6 533d 3604 28bd abe5 14bd 3042 e03c
000000a0: c25f af3c e6bb 98bb 68f3 b6bc 33f2 63bc
000000b0: d3f5 d0bb 7e47 483c f061 ab3d a154 763d
000000c0: ce7b b63c 746a 32bd a925 91bc 9ede 903a
000000d0: 1def 9abb d573 29bd fcb3 2fbc f103 8c3d
000000e0: 69c6 a93c d1d6 c43c 61a0 4fbc bfd1 013d
000000f0: 3d67 68bd ee1d 833c 3c43 9b3c 1d21 673c
00000100: b339 0ebc 6198 cfbb 9ac0 473c 0deb d53c
00000110: 728c 8b3b 14ab 22bd a34d 6a3c bc68 533d
00000120: 95e1 503d 8330 0f3b 31f1 9cbc b671 5dbc
00000130: 839b e0bc 7a35 6abc 9d67 c23c 4d2e 683d
00000140: b5bd a7bd ea65 febc 2838 e63d 1d4e feba
00000150: e42c e33b e0bf 933b b452 243c 9e10 dcbc
00000160: 1b7e bbba 80fd b33b e54e d1bc ec34 5f3c
00000170: b3b7 993c c9c1 77bb 3011 033d 73bf 193d
00000180: 86b5 d93c 16ef a03d 2ed6 37bd ba2f a8bd
00000190: e189 8ebd 9bbf b03c 8f56 5a3d 6041 b4bc
000001a0: c5ac 00bd 7650 f13a 8e98 673d d459 143c
000001b0: 8206 3d3d 788c baba 02df bfbd 1f97 eebc
000001c0: 5851 05bc fa4a 2cbd 5bba d53c 96a8 223d
000001d0: 0b87 273d c8d2 c4bb 5588 23bd 7af5 5a3d
000001e0: 9c2f 973d 62e1 aa3c 6825 633b f40f 7bbd
000001f0: 2e2f 153d 04de 90bc b909 d13d 0393 9a3d
00000200: a32f 25bd e15a 3d3d ee71 b93c 19cd 7abd
00000210: d311 0fbd c507 153d 62b1 0c3d 4b56 0bbd
00000220: add1 29bd f1a7 353b 3fdd b53c d14c a73c
00000230: e65c 773d b3ad 843c dbbf 11bc 4669 2cbc
00000240: 0831 41bc 81c9 4a3d 895a d93b e4bd 9fbd
00000250: e923 66bd 0f29 ebbb a5d6 943d ca99 3ebd
00000260: 7f63 14bd ecf7 263c 1248 fa3c 8879 c03d
00000270: c76f 33bd a270 263d d257 6abd 94e4 adbd
00000280: 8c19 853c b0ff 483d ed96 d4bc cbcb efbc
00000290: 78f0 63bd 75e8 613d 85c2 883c 9807 ffbc
000002a0: c438 6cbc 02fa 923c d987 133d 2f72 7b3c
000002b0: 530d 313d 8461 f73b a2ba 77bd 337a 6fbd
000002c0: c3d7 3ebb e7eb 27bd 809d 8d3d 112b b63d
000002d0: 87b7 8a3d 766b e0b9 421a 52bd 3f9d 32ba
000002e0: 6320 233c 6e53 3cbc 8d68 71bc 7f9a 88bd
000002f0: b376 c03c a561 7ebd 693d 173e a7e9 e73d
00000300: 0bd8 633d 7a3f d0bc 5ed6 57bd d4b8 213d
00000310: 9468 a33c 02fd 13bd c3ab 12bd fe22 9e3c
00000320: 1af7 55bc 327b 42bc 7a7d 3dbc ec41 82bc
00000330: 2211 24bc 9e1f b6bc 6e88 e5bc e3c9 f6bb
00000340: e7af 323c 3854 00bd 606d e4bc 6f28 723c
00000350: 013c 833b d424 64bd 7ebf 89bc e68c 663d
00000360: adfd 333d 7813 6fbc 5bba 05bd 8d58 c6bc
00000370: 934a 3abd ae0e 273c 2780 93bb e1b2 bbbc
00000380: 7be2 6a3d a957 52bd cd84 1ebd 0e82 4e3d
00000390: 98bc d93c 83f9 87bc 3b1e 88bc 630e 933d
000003a0: 3544 dc3c bcdc 9dbb 0edf bbbc 2622 88bc
000003b0: c1d4 3abd fb20 4c3c f510 a53a 168d bd3b
000003c0: 8b1e bdbb 1dbc 4ebd 200e a2bc 9c8c 893c
000003d0: 11bd 5b3c 671d 76bd f476 ecbc 7aa7 983d
000003e0: a638 5d3c a3ff b43a 618a fdbc dec0 8fbc
000003f0: 4c23 56bd db5f 2a3d 04de a03c 5527 cf3b
-0.07105325 0.041856755 0.022331083 -0.014050277 -0.029374905 0.065591805 0.018765382 -0.06316823
-0.017310902 -0.01706661 0.0041043498 0.0115738455 0.0659203 0.0074497727 0.006088988 0.028342716
0.048119593 -0.01517042 -0.08883971 -0.014910908 -0.038071655 -0.07732349 0.022234924 0.028256461
0.0067318077 0.034835976 -0.0088505875 0.0061199097 -0.0684942 0.017215244 -0.05522534 -0.016772399
-0.060434945 -0.05310607 0.05301198 0.035023328 0.051702555 -0.04101964 -0.03635184 0.02737531
0.021407966 -0.004661071 -0.022332862 -0.013912725 -0.006376961 0.012224076 0.083682895 0.060139302
0.022275832 -0.043558553 -0.017718153 0.0011052673 -0.0047282116 -0.04137023 -0.010724064 0.06836689
0.020724492 0.024028214 -0.012672515 0.03169417 -0.05673908 0.016005483 0.018952958 0.014107016
-0.008680749 -0.0063353037 0.012191916 0.026113058 0.0042586857 -0.039713934 0.014300737 0.051613554
0.05099638 0.0021848984 -0.019157978 -0.01351588 -0.027417904 -0.014294976 0.023731047 0.05668478
-0.081904806 -0.031054456 0.1124118 -0.0019401942 0.0069328416 0.0045089573 0.010029484 -0.026863392
-0.001430455 0.005492866 -0.025550315 0.013623457 0.018764352 -0.0037804714 0.031998813 0.037536096
0.026575815 0.07858102 -0.044881992 -0.08212228 -0.06959892 0.02157574 0.053305205 -0.02200383
-0.031414766 0.001841082 0.05654197 0.00905462 0.046148784 -0.0014232537 -0.09368707 -0.029124795
-0.00813707 -0.04206369 0.026089838 0.039711557 0.04090027 -0.0060065724 -0.03992494 0.05345676
0.07382128 0.020859424 0.0034659747 -0.06129451 0.036421947 -0.01768399 0.102069326 0.075475715
-0.040328633 0.046229247 0.022637334 -0.061230753 -0.034929108 0.036384363 0.034348853 -0.034017842
-0.041459728 0.002771851 0.022200225 0.020422371 0.06039133 0.016196107 -0.00889584 -0.010523146
-0.011791475 0.049508575 0.006633107 -0.07799891 -0.05618659 -0.0071765254 0.07267503 -0.046533383
-0.0362277 0.010190945 0.030551944 0.0939818 -0.04380777 0.04063476 -0.05721266 -0.084908634
0.016247533 0.049071968 -0.025950873 -0.02927198 -0.05564925 0.05515333 0.016694317 -0.03113155
-0.014417831 0.017941479 0.036018226 0.015347048 0.043225598 0.0075494666 -0.06048072 -0.058466148
-0.0029120303 -0.04099646 0.06914806 0.08894933 0.06773286 -0.00042804674 -0.051294573 -0.00068135926
0.009956452 -0.011494501 -0.0147343995 -0.06670093 0.0234941 -0.06210484 0.1476952 0.113238625
0.055625957 -0.025420893 -0.05269467 0.039482906 0.019947328 -0.03612996 -0.035808336 0.019303795
-0.013059402 -0.011870192 -0.0115655605 -0.015900575 -0.01001385 -0.022231873 -0.028019156 -0.007531391
0.010906196 -0.031330317 -0.027884185 0.014780148 0.0040049558 -0.055699185 -0.016814943 0.056286715
0.043943096 -0.014592044 -0.032648426 -0.024212146 -0.045481276 0.010196371 -0.004501361 -0.022912445
0.057344895 -0.05135313 -0.038700867 0.050417 0.026579186 -0.016598469 -0.016615978 0.071804784
0.026887992 -0.0048175734 -0.02293351 -0.016617846 -0.045613054 0.012459035 0.0012593555 0.005784641
-0.0057714633 -0.050472368 -0.019782126 0.01679068 0.013411776 -0.060086634 -0.028865315 0.074538186
0.013502276 0.0013809096 -0.030949773 -0.01754802 -0.052279755 0.04159532 0.019637115 0.0063218274

transformer.h.0.attn.multihead_attn.out_proj.bias f4 [16]
00000000: 4f03 efba 9154 2d3a a6c7 613b ac66 963a
00000010: 44a4 593b 0ed6 1c3b fedb cdba 105b ad3b
00000020: ce43 ffba 2a7a b6bb bbe8 78bb fa5e b53b
00000030: 35ec fc39 8703 143b c7cc fd39 3407 cb3a
-0.0018235239 0.00066120276 0.0034451275 0.001147469 0.0033209482 0.0023931297 -0.0015705822 0.0052903965
-0.0019475163 -0.0055687623 -0.0037980515 0.0055350037 0.00048241173 0.002258511 0.0004840849 0.0015489818

transformer.h.0.ln_2.weight f4 [16]
00000000: 8469 853f eb2f 823f b333 7e3f 766f 803f
00000010: abe2 7b3f 2b74 7f3f 0a8e 803f ca5b 823f
00000020: af0b 7e3f 9c7e 793f 92d5 803f 38ce 723f
00000030: 3e40 823f 7bcc 813f bd47 7f3f 0f44 7e3f
1.0422826 1.0170873 0.99297637 1.0034015 0.9839274 0.99786633 1.0043347 1.0184262
0.9923658 0.97458816 1.0065176 0.94845915 1.0175855 1.0140527 0.9971884 0.993226

transformer.h.0.ln_2.bias f4 [16]
00000000: 8466 3a3c e123 8e3b d7e1 a5bc 33f9 99bc
00000010: cf34 723c 593c cbbc 6ccc 05bc a898 3f3a
00000020: 3483 503c 9be0 863c 8283 463c 1899 38ba
00000030: 229d 713c e686 c23b c74a 18bc afb1 bcbc
0.011376981 0.004337773 -0.02024929 -0.018795585 0.014783098 -0.02480905 -0.008166414 0.00073088193
0.012726594 0.016464522 0.012116315 -0.0007041856 0.014746936 0.0059364913 -0.009295172 -0.023033945
